…
PersonalProjects/bittensor/analytics_framework/conversion_subnet/utils/log.py"}, "function": "info", "level": {"icon": "ℹ️", "name": "INFO", "no": 20}, "line": 112, "message": "Starting test session", "module": "log", "name": "conversion_subnet.utils.log", "process": {"id": 29097, "name": "MainProcess"}, "thread": {"id": 8481721472, "name": "MainThread"}, "time": {"repr": "2025-05-03 15:46:58.262626+05:30", "timestamp": 1746267418.262626}}}
{"text": "2025-05-03 15:46:58.274 | INFO     | conversion_subnet.utils.log:info:112 - Initialized binary classification miner with model: Sequential(\n  (0): Linear(in_features=40, out_features=64, bias=True)\n  (1): ReLU()\n  (2): Linear(in_features=64, out_features=32, bias=True)\n  (3): ReLU()\n  (4): Linear(in_features=32, out_features=1, bias=True)\n  (5): Sigmoid()\n)\n", "record": {"elapsed": {"repr": "0:00:00.661181", "seconds": 0.661181}, "exception": null, "extra": {}, "file": {"name": "log.py", "path": "/Users/admin/Documents/PersonalProjects/bittensor/analytics_framework/conversion_subnet/utils/log.py"}, "function": "info", "level": {"icon": "ℹ️", "name": "INFO", "no": 20}, "line": 112, "message": "Initialized binary classification miner with model: Sequential(\n  (0): Linear(in_features=40, out_features=64, bias=True)\n  (1): ReLU()\n  (2): Linear(in_features=64, out_features=32, bias=True)\n  (3): ReLU()\n  (4): Linear(in_features=32, out_features=1, bias=True)\n  (5): Sigmoid()\n)", "module": "log", "name": "conversion_subnet.utils.log", "process": {"id": 29097, "name": "MainProcess"}, "thread": {"id": 8481721472, "name": "MainThread"}, "time": {"repr": "2025-05-03 15:46:58.274826+05:30", "timestamp": 1746267418.274826}}}
{"text": "2025-05-03 15:46:58.403 | INFO     | conversion_subnet.utils.log:info:112 - Initialized binary classification miner with model: Sequential(\n  (0): Linear(in_features=40, out_features=64, bias=True)\n  (1): ReLU()\n  (2): Linear(in_features=64, out_features=32, bias=True)\n  (3): ReLU()\n  (4): Linear(in_features=32, out_features=1, bias=True)\n  (5): Sigmoid()\n)\n", "record": {"elapsed": {"repr": "0:00:00.790165", "seconds": 0.790165}, "exception": null, "extra": {}, "file": {"name": "log.py", "path": "/Users/admin/Documents/PersonalProjects/bittensor/analytics_framework/conversion_subnet/utils/log.py"}, "function": "info", "level": {"icon": "ℹ️", "name": "INFO", "no": 20}, "line": 112, "message": "Initialized binary classification miner with model: Sequential(\n  (0): Linear(in_features=40, out_features=64, bias=True)\n  (1): ReLU()\n  (2): Linear(in_features=64, out_features=32, bias=True)\n  (3): ReLU()\n  (4): Linear(in_features=32, out_features=1, bias=True)\n  (5): Sigmoid()\n)", "module": "log", "name": "conversion_subnet.utils.log", "process": {"id": 29097, "name": "MainProcess"}, "thread": {"id": 8481721472, "name": "MainThread"}, "time": {"repr": "2025-05-03 15:46:58.403810+05:30", "timestamp": 1746267418.40381}}}
{"text": "2025-05-03 15:46:58.453 | INFO     | conversion_subnet.utils.log:info:112 - Initialized binary classification miner with model: Sequential(\n  (0): Linear(in_features=40, out_features=64, bias=True)\n  (1): ReLU()\n  (2): Linear(in_features=64, out_features=32, bias=True)\n  (3): ReLU()\n  (4): Linear(in_features=32, out_features=1, bias=True)\n  (5): Sigmoid()\n)\n", "record": {"elapsed": {"repr": "0:00:00.839500", "seconds": 0.8395}, "exception": null, "extra": {}, "file": {"name": "log.py", "path": "/Users/admin/Documents/PersonalProjects/bittensor/analytics_framework/conversion_subnet/utils/log.py"}, "function": "info", "level": {"icon": "ℹ️", "name": "INFO", "no": 20}, "line": 112, "message": "Initialized binary classification miner with model: Sequential(\n  (0): Linear(in_features=40, out_features=64, bias=True)\n  (1): ReLU()\n  (2): Linear(in_features=64, out_features=32, bias=True)\n  (3): ReLU()\n  (4): Linear(in_features=32, out_features=1, bias=True)\n  (5): Sigmoid()\n)", "module": "log", "name": "conversion_subnet.utils.log", "process": {"id": 29097, "name": "MainProcess"}, "thread": {"id": 8481721472, "name": "MainThread"}, "time": {"repr": "2025-05-03 15:46:58.453145+05:30", "timestamp": 1746267418.453145}}}
{"text": "2025-05-03 15:46:58.529 | INFO     | conversion_subnet.utils.log:info:112 - Initialized binary classification miner with model: Sequential(\n  (0): Linear(in_features=40, out_features=64, bias=True)\n  (1): ReLU()\n  (2): Linear(in_features=64, out_features=32, bias=True)\n  (3): ReLU()\n  (4): Linear(in_features=32, out_features=1, bias=True)\n  (5): Sigmoid()\n)\n", "record": {"elapsed": {"repr": "0:00:00.915719", "seconds": 0.915719}, "exception": null, "extra": {}, "file": {"name": "log.py", "path": "/Users/admin/Documents/PersonalProjects/bittensor/analytics_framework/conversion_subnet/utils/log.py"}, "function": "info", "level": {"icon": "ℹ️", "name": "INFO", "no": 20}, "line": 112, "message": "Initialized binary classification miner with model: Sequential(\n  (0): Linear(in_features=40, out_features=64, bias=True)\n  (1): ReLU()\n  (2): Linear(in_features=64, out_features=32, bias=True)\n  (3): ReLU()\n  (4): Linear(in_features=32, out_features=1, bias=True)\n  (5): Sigmoid()\n)", "module": "log", "name": "conversion_subnet.utils.log", "process": {"id": 29097, "name": "MainProcess"}, "thread": {"id": 8481721472, "name": "MainThread"}, "time": {"repr": "2025-05-03 15:46:58.529364+05:30", "timestamp": 1746267418.529364}}}
{"text": "2025-05-03 15:46:58.534 | INFO     | conversion_subnet.utils.log:info:112 - Initialized binary classification miner with model: Sequential(\n  (0): Linear(in_features=40, out_features=32, bias=True)\n  (1): ReLU()\n  (2): Linear(in_features=32, out_features=16, bias=True)\n  (3): ReLU()\n  (4): Linear(in_features=16, out_features=1, bias=True)\n  (5): Sigmoid()\n)\n", "record": {"elapsed": {"repr": "0:00:00.921208", "seconds": 0.921208}, "exception": null, "extra": {}, "file": {"name": "log.py", "path": "/Users/admin/Documents/PersonalProjects/bittensor/analytics_framework/conversion_subnet/utils/log.py"}, "function": "info", "level": {"icon": "ℹ️", "name": "INFO", "no": 20}, "line": 112, "message": "Initialized binary classification miner with model: Sequential(\n  (0): Linear(in_features=40, out_features=32, bias=True)\n  (1): ReLU()\n  (2): Linear(in_features=32, out_features=16, bias=True)\n  (3): ReLU()\n  (4): Linear(in_features=16, out_features=1, bias=True)\n  (5): Sigmoid()\n)", "module": "log", "name": "conversion_subnet.utils.log", "process": {"id": 29097, "name": "MainProcess"}, "thread": {"id": 8481721472, "name": "MainThread"}, "time": {"repr": "2025-05-03 15:46:58.534853+05:30", "timestamp": 1746267418.534853}}}
{"text": "2025-05-03 15:46:58.539 | INFO     | conversion_subnet.utils.log:info:112 - Initialized binary classification miner with model: Sequential(\n  (0): Linear(in_features=40, out_features=64, bias=True)\n  (1): ReLU()\n  (2): Linear(in_features=64, out_features=32, bias=True)\n  (3): ReLU()\n  (4): Linear(in_features=32, out_features=1, bias=True)\n  (5): Sigmoid()\n)\n", "record": {"elapsed": {"repr": "0:00:00.925867", "seconds": 0.925867}, "exception": null, "extra": {}, "file": {"name": "log.py", "path": "/Users/admin/Documents/PersonalProjects/bittensor/analytics_framework/conversion_subnet/utils/log.py"}, "function": "info", "level": {"icon": "ℹ️", "name": "INFO", "no": 20}, "line": 112, "message": "Initialized binary classification miner with model: Sequential(\n  (0): Linear(in_features=40, out_features=64, bias=True)\n  (1): ReLU()\n  (2): Linear(in_features=64, out_features=32, bias=True)\n  (3): ReLU()\n  (4): Linear(in_features=32, out_features=1, bias=True)\n  (5): Sigmoid()\n)", "module": "log", "name": "conversion_subnet.utils.log", "process": {"id": 29097, "name": "MainProcess"}, "thread": {"id": 8481721472, "name": "MainThread"}, "time": {"repr": "2025-05-03 15:46:58.539512+05:30", "timestamp": 1746267418.539512}}}
{"text": "2025-05-03 15:46:58.544 | ERROR    | conversion_subnet.utils.log:error:130 - Err
…
sor/analytics_framework/conversion_subnet/utils/log.py"}, "function": "error", "level": {"icon": "❌", "name": "ERROR", "no": 40}, "line": 130, "message": "Error in forward: too many dimensions 'str'", "module": "log", "name": "conversion_subnet.utils.log", "process": {"id": 29097, "name": "MainProcess"}, "thread": {"id": 8481721472, "name": "MainThread"}, "time": {"repr": "2025-05-03 15:46:58.544017+05:30", "timestamp": 1746267418.544017}}}
{"text": "2025-05-03 15:46:58.552 | INFO     | conversion_subnet.utils.log:info:112 - Initialized binary classification miner with model: Sequential(\n  (0): Linear(in_features=40, out_features=64, bias=True)\n  (1): ReLU()\n  (2): Linear(in_features=64, out_features=32, bias=True)\n  (3): ReLU()\n  (4): Linear(in_features=32, out_features=1, bias=True)\n  (5): Sigmoid()\n)\n", "record": {"elapsed": {"repr": "0:00:00.938680", "seconds": 0.93868}, "exception": null, "extra": {}, "file": {"name": "log.py", "path": "/Users/admin/Documents/PersonalProjects/bittensor/analytics_framework/conversion_subnet/utils/log.py"}, "function": "info", "level": {"icon": "ℹ️", "name": "INFO", "no": 20}, "line": 112, "message": "Initialized binary classification miner with model: Sequential(\n  (0): Linear(in_features=40, out_features=64, bias=True)\n  (1): ReLU()\n  (2): Linear(in_features=64, out_features=32, bias=True)\n  (3): ReLU()\n  (4): Linear(in_features=32, out_features=1, bias=True)\n  (5): Sigmoid()\n)", "module": "log", "name": "conversion_subnet.utils.log", "process": {"id": 29097, "name": "MainProcess"}, "thread": {"id": 8481721472, "name": "MainThread"}, "time": {"repr": "2025-05-03 15:46:58.552325+05:30", "timestamp": 1746267418.552325}}}
{"text": "2025-05-03 15:46:58.553 | ERROR    | conversion_subnet.utils.log:error:130 - Err
…
nsor/analytics_framework/conversion_subnet/utils/log.py"}, "function": "error", "level": {"icon": "❌", "name": "ERROR", "no": 40}, "line": 130, "message": "Error in forward: too many dimensions 'str'", "module": "log", "name": "conversion_subnet.utils.log", "process": {"id": 29097, "name": "MainProcess"}, "thread": {"id": 8481721472, "name": "MainThread"}, "time": {"repr": "2025-05-03 15:46:58.562440+05:30", "timestamp": 1746267418.56244}}}
{"text": "2025-05-03 15:46:58.567 | INFO     | conversion_subnet.utils.log:info:112 - Initialized binary classification miner with model: Sequential(\n  (0): Linear(in_features=40, out_features=64, bias=True)\n  (1): ReLU()\n  (2): Linear(in_features=64, out_features=32, bias=True)\n  (3): ReLU()\n  (4): Linear(in_features=32, out_features=1, bias=True)\n  (5): Sigmoid()\n)\n", "record": {"elapsed": {"repr": "0:00:00.953838", "seconds": 0.953838}, "exception": null, "extra": {}, "file": {"name": "log.py", "path": "/Users/admin/Documents/PersonalProjects/bittensor/analytics_framework/conversion_subnet/utils/log.py"}, "function": "info", "level": {"icon": "ℹ️", "name": "INFO", "no": 20}, "line": 112, "message": "Initialized binary classification miner with model: Sequential(\n  (0): Linear(in_features=40, out_features=64, bias=True)\n  (1): ReLU()\n  (2): Linear(in_features=64, out_features=32, bias=True)\n  (3): ReLU()\n  (4): Linear(in_features=32, out_features=1, bias=True)\n  (5): Sigmoid()\n)", "module": "log", "name": "conversion_subnet.utils.log", "process": {"id": 29097, "name": "MainProcess"}, "thread": {"id": 8481721472, "name": "MainThread"}, "time": {"repr": "2025-05-03 15:46:58.567483+05:30", "timestamp": 1746267418.567483}}}
{"text": "2025-05-03 15:46:58.611 | INFO     | conversion_subnet.utils.log:info:112 - Initialized binary classification miner with model: Sequential(\n  (0): Linear(in_features=40, out_features=64, bias=True)\n  (1): ReLU()\n  (2): Linear(in_features=64, out_features=32, bias=True)\n  (3): ReLU()\n  (4): Linear(in_features=32, out_features=1, bias=True)\n  (5): Sigmoid()\n)\n", "record": {"elapsed": {"repr": "0:00:00.997601", "seconds": 0.997601}, "exception": null, "extra": {}, "file": {"name": "log.py", "path": "/Users/admin/Documents/PersonalProjects/bittensor/analytics_framework/conversion_subnet/utils/log.py"}, "function": "info", "level": {"icon": "ℹ️", "name": "INFO", "no": 20}, "line": 112, "message": "Initialized binary classification miner with model: Sequential(\n  (0): Linear(in_features=40, out_features=64, bias=True)\n  (1): ReLU()\n  (2): Linear(in_features=64, out_features=32, bias=True)\n  (3): ReLU()\n  (4): Linear(in_features=32, out_features=1, bias=True)\n  (5): Sigmoid()\n)", "module": "log", "name": "conversion_subnet.utils.log", "process": {"id": 29097, "name": "MainProcess"}, "thread": {"id": 8481721472, "name": "MainThread"}, "time": {"repr": "2025-05-03 15:46:58.611246+05:30", "timestamp": 1746267418.611246}}}
{"text": "2025-05-03 15:46:58.648 | INFO     | conversion_subnet.utils.log:info:112 - Epoc
…
nsor/analytics_framework/conversion_subnet/utils/log.py"}, "function": "error", "level": {"icon": "❌", "name": "ERROR", "no": 40}, "line": 130, "message": "Error in forward: too many dimensions 'str'", "module": "log", "name": "conversion_subnet.utils.log", "process": {"id": 29553, "name": "MainProcess"}, "thread": {"id": 8481721472, "name": "MainThread"}, "time": {"repr": "2025-05-03 15:49:25.228540+05:30", "timestamp": 1746267565.22854}}}
{"text": "2025-05-03 15:49:25.237 | INFO     | conversion_subnet.utils.log:info:112 - Initialized binary classification miner with model: Sequential(\n  (0): Linear(in_features=40, out_features=64, bias=True)\n  (1): ReLU()\n  (2): Linear(in_features=64, out_features=32, bias=True)\n  (3): ReLU()\n  (4): Linear(in_features=32, out_features=1, bias=True)\n  (5): Sigmoid()\n)\n", "record": {"elapsed": {"repr": "0:00:00.744051", "seconds": 0.744051}, "exception": null, "extra": {}, "file": {"name": "log.py", "path": "/Users/admin/Documents/PersonalProjects/bittensor/analytics_framework/conversion_subnet/utils/log.py"}, "function": "info", "level": {"icon": "ℹ️", "name": "INFO", "no": 20}, "line": 112, "message": "Initialized binary classification miner with model: Sequential(\n  (0): Linear(in_features=40, out_features=64, bias=True)\n  (1): ReLU()\n  (2): Linear(in_features=64, out_features=32, bias=True)\n  (3): ReLU()\n  (4): Linear(in_features=32, out_features=1, bias=True)\n  (5): Sigmoid()\n)", "module": "log", "name": "conversion_subnet.utils.log", "process": {"id": 29553, "name": "MainProcess"}, "thread": {"id": 8481721472, "name": "MainThread"}, "time": {"repr": "2025-05-03 15:49:25.237097+05:30", "timestamp": 1746267565.237097}}}
{"text": "2025-05-03 15:49:25.311 | INFO     | conversion_subnet.utils.log:info:112 - Initialized binary classification miner with model: Sequential(\n  (0): Linear(in_features=40, out_features=64, bias=True)\n  (1): ReLU()\n  (2): Linear(in_features=64, out_features=32, bias=True)\n  (3): ReLU()\n  (4): Linear(in_features=32, out_features=1, bias=True)\n  (5): Sigmoid()\n)\n", "record": {"elapsed": {"repr": "0:00:00.818924", "seconds": 0.818924}, "exception": null, "extra": {}, "file": {"name": "log.py", "path": "/Users/admin/Documents/PersonalProjects/bittensor/analytics_framework/conversion_subnet/utils/log.py"}, "function": "info", "level": {"icon": "ℹ️", "name": "INFO", "no": 20}, "line": 112, "message": "Initialized binary classification miner with model: Sequential(\n  (0): Linear(in_features=40, out_features=64, bias=True)\n  (1): ReLU()\n  (2): Linear(in_features=64, out_features=32, bias=True)\n  (3): ReLU()\n  (4): Linear(in_features=32, out_features=1, bias=True)\n  (5): Sigmoid()\n)", "module": "log", "name": "conversion_subnet.utils.log", "process": {"id": 29553, "name": "MainProcess"}, "thread": {"id": 8481721472, "name": "MainThread"}, "time": {"repr": "2025-05-03 15:49:25.311970+05:30", "timestamp": 1746267565.31197}}}
{"text": "2025-05-03 15:49:25.316 | INFO     | conversion_subnet.utils.log:info:112 - Initialized binary classification miner with model: Sequential(\n  (0): Linear(in_features=40, out_features=32, bias=True)\n  (1): ReLU()\n  (2): Linear(in_features=32, out_features=16, bias=True)\n  (3): ReLU()\n  (4): Linear(in_features=16, out_features=1, bias=True)\n  (5): Sigmoid()\n)\n", "record": {"elapsed": {"repr": "0:00:00.823700", "seconds": 0.8237}, "exception": null, "extra": {}, "file": {"name": "log.py", "path": "/Users/admin/Documents/PersonalProjects/bittensor/analytics_framework/conversion_subnet/utils/log.py"}, "function": "info", "level": {"icon": "ℹ️", "name": "INFO", "no": 20}, "line": 112, "message": "Initialized binary classification miner with model: Sequential(\n  (0): Linear(in_features=40, out_features=32, bias=True)\n  (1): ReLU()\n  (2): Linear(in_features=32, out_features=16, bias=True)\n  (3): ReLU()\n  (4): Linear(in_features=16, out_features=1, bias=True)\n  (5): Sigmoid()\n)", "module": "log", "name": "conversion_subnet.utils.log", "process": {"id": 29553, "name": "MainProcess"}, "thread": {"id": 8481721472, "name": "MainThread"}, "time": {"repr": "2025-05-03 15:49:25.316746+05:30", "timestamp": 1746267565.316746}}}
{"text": "2025-05-03 15:49:25.321 | INFO     | conversion_subnet.utils.log:info:112 - Initialized binary classification miner with model: Sequential(\n  (0): Linear(in_features=40, out_features=64, bias=True)\n  (1): ReLU()\n  (2): Linear(in_features=64, out_features=32, bias=True)\n  (3): ReLU()\n  (4): Linear(in_features=32, out_features=1, bias=True)\n  (5): Sigmoid()\n)\n", "record": {"elapsed": {"repr": "0:00:00.828246", "seconds": 0.828246}, "exception": null, "extra": {}, "file": {"name": "log.py", "path": "/Users/admin/Documents/PersonalProjects/bittensor/analytics_framework/conversion_subnet/utils/log.py"}, "function": "info", "level": {"icon": "ℹ️", "name": "INFO", "no": 20}, "line": 112, "message": "Initialized binary classification miner with model: Sequential(\n  (0): Linear(in_features=40, out_features=64, bias=True)\n  (1): ReLU()\n  (2): Linear(in_features=64, out_features=32, bias=True)\n  (3): ReLU()\n  (4): Linear(in_features=32, out_features=1, bias=True)\n  (5): Sigmoid()\n)", "module": "log", "name": "conversion_subnet.utils.log", "process": {"id": 29553, "name": "MainProcess"}, "thread": {"id": 8481721472, "name": "MainThread"}, "time": {"repr": "2025-05-03 15:49:25.321292+05:30", "timestamp": 1746267565.321292}}}
{"text": "2025-05-03 15:49:25.322 | ERROR    | conversion_subnet.utils.log:error:130 - Err
…
PersonalProjects/bittensor/analytics_framework/conversion_subnet/utils/log.py"}, "function": "info", "level": {"icon": "ℹ️", "name": "INFO", "no": 20}, "line": 112, "message": "Starting test session", "module": "log", "name": "conversion_subnet.utils.log", "process": {"id": 30390, "name": "MainProcess"}, "thread": {"id": 8481721472, "name": "MainThread"}, "time": {"repr": "2025-05-03 15:53:56.479599+05:30", "timestamp": 1746267836.479599}}}
{"text": "2025-05-03 15:53:56.484 | INFO     | conversion_subnet.utils.log:info:112 - Initialized binary classification miner with model: Sequential(\n  (0): Linear(in_features=40, out_features=64, bias=True)\n  (1): ReLU()\n  (2): Linear(in_features=64, out_features=32, bias=True)\n  (3): ReLU()\n  (4): Linear(in_features=32, out_features=1, bias=True)\n  (5): Sigmoid()\n)\n", "record": {"elapsed": {"repr": "0:00:00.503705", "seconds": 0.503705}, "exception": null, "extra": {}, "file": {"name": "log.py", "path": "/Users/admin/Documents/PersonalProjects/bittensor/analytics_framework/conversion_subnet/utils/log.py"}, "function": "info", "level": {"icon": "ℹ️", "name": "INFO", "no": 20}, "line": 112, "message": "Initialized binary classification miner with model: Sequential(\n  (0): Linear(in_features=40, out_features=64, bias=True)\n  (1): ReLU()\n  (2): Linear(in_features=64, out_features=32, bias=True)\n  (3): ReLU()\n  (4): Linear(in_features=32, out_features=1, bias=True)\n  (5): Sigmoid()\n)", "module": "log", "name": "conversion_subnet.utils.log", "process": {"id": 30390, "name": "MainProcess"}, "thread": {"id": 8481721472, "name": "MainThread"}, "time": {"repr": "2025-05-03 15:53:56.484579+05:30", "timestamp": 1746267836.484579}}}
{"text": "2025-05-03 15:53:56.499 | INFO     | conversion_subnet.utils.log:info:112 - Initialized binary classification miner with model: Sequential(\n  (0): Linear(in_features=40, out_features=64, bias=True)\n  (1): ReLU()\n  (2): Linear(in_features=64, out_features=32, bias=True)\n  (3): ReLU()\n  (4): Linear(in_features=32, out_features=1, bias=True)\n  (5): Sigmoid()\n)\n", "record": {"elapsed": {"repr": "0:00:00.519061", "seconds": 0.519061}, "exception": null, "extra": {}, "file": {"name": "log.py", "path": "/Users/admin/Documents/PersonalProjects/bittensor/analytics_framework/conversion_subnet/utils/log.py"}, "function": "info", "level": {"icon": "ℹ️", "name": "INFO", "no": 20}, "line": 112, "message": "Initialized binary classification miner with model: Sequential(\n  (0): Linear(in_features=40, out_features=64, bias=True)\n  (1): ReLU()\n  (2): Linear(in_features=64, out_features=32, bias=True)\n  (3): ReLU()\n  (4): Linear(in_features=32, out_features=1, bias=True)\n  (5): Sigmoid()\n)", "module": "log", "name": "conversion_subnet.utils.log", "process": {"id": 30390, "name": "MainProcess"}, "thread": {"id": 8481721472, "name": "MainThread"}, "time": {"repr": "2025-05-03 15:53:56.499935+05:30", "timestamp": 1746267836.499935}}}
{"text": "2025-05-03 15:53:56.505 | INFO     | conversion_subnet.utils.log:info:112 - Initialized binary classification miner with model: Sequential(\n  (0): Linear(in_features=40, out_features=64, bias=True)\n  (1): ReLU()\n  (2): Linear(in_features=64, out_features=32, bias=True)\n  (3): ReLU()\n  (4): Linear(in_features=32, out_features=1, bias=True)\n  (5): Sigmoid()\n)\n", "record": {"elapsed": {"repr": "0:00:00.524508", "seconds": 0.524508}, "exception": null, "extra": {}, "file": {"name": "log.py", "path": "/Users/admin/Documents/PersonalProjects/bittensor/analytics_framework/conversion_subnet/utils/log.py"}, "function": "info", "level": {"icon": "ℹ️", "name": "INFO", "no": 20}, "line": 112, "message": "Initialized binary classification miner with model: Sequential(\n  (0): Linear(in_features=40, out_features=64, bias=True)\n  (1): ReLU()\n  (2): Linear(in_features=64, out_features=32, bias=True)\n  (3): ReLU()\n  (4): Linear(in_features=32, out_features=1, bias=True)\n  (5): Sigmoid()\n)", "module": "log", "name": "conversion_subnet.utils.log", "process": {"id": 30390, "name": "MainProcess"}, "thread": {"id": 8481721472, "name": "MainThread"}, "time": {"repr": "2025-05-03 15:53:56.505382+05:30", "timestamp": 1746267836.505382}}}
{"text": "2025-05-03 15:53:56.507 | ERROR    | conversion_subnet.utils.log:error:130 - Err
…
nsor/analytics_framework/conversion_subnet/utils/log.py"}, "function": "error", "level": {"icon": "❌", "name": "ERROR", "no": 40}, "line": 130, "message": "Error in forward: too many dimensions 'str'", "module": "log", "name": "conversion_subnet.utils.log", "process": {"id": 30477, "name": "MainProcess"}, "thread": {"id": 8481721472, "name": "MainThread"}, "time": {"repr": "2025-05-03 15:54:21.997770+05:30", "timestamp": 1746267861.99777}}}
{"text": "2025-05-03 15:54:22.006 | INFO     | conversion_subnet.utils.log:info:112 - Initialized binary classification miner with model: Sequential(\n  (0): Linear(in_features=40, out_features=64, bias=True)\n  (1): ReLU()\n  (2): Linear(in_features=64, out_features=32, bias=True)\n  (3): ReLU()\n  (4): Linear(in_features=32, out_features=1, bias=True)\n  (5): Sigmoid()\n)\n", "record": {"elapsed": {"repr": "0:00:00.515304", "seconds": 0.515304}, "exception": null, "extra": {}, "file": {"name": "log.py", "path": "/Users/admin/Documents/PersonalProjects/bittensor/analytics_framework/conversion_subnet/utils/log.py"}, "function": "info", "level": {"icon": "ℹ️", "name": "INFO", "no": 20}, "line": 112, "message": "Initialized binary classification miner with model: Sequential(\n  (0): Linear(in_features=40, out_features=64, bias=True)\n  (1): ReLU()\n  (2): Linear(in_features=64, out_features=32, bias=True)\n  (3): ReLU()\n  (4): Linear(in_features=32, out_features=1, bias=True)\n  (5): Sigmoid()\n)", "module": "log", "name": "conversion_subnet.utils.log", "process": {"id": 30477, "name": "MainProcess"}, "thread": {"id": 8481721472, "name": "MainThread"}, "time": {"repr": "2025-05-03 15:54:22.006768+05:30", "timestamp": 1746267862.006768}}}
{"text": "2025-05-03 15:54:22.128 | INFO     | conversion_subnet.utils.log:info:112 - Initialized binary classification miner with model: Sequential(\n  (0): Linear(in_features=40, out_features=64, bias=True)\n  (1): ReLU()\n  (2): Linear(in_features=64, out_features=32, bias=True)\n  (3): ReLU()\n  (4): Linear(in_features=32, out_features=1, bias=True)\n  (5): Sigmoid()\n)\n", "record": {"elapsed": {"repr": "0:00:00.637007", "seconds": 0.637007}, "exception": null, "extra": {}, "file": {"name": "log.py", "path": "/Users/admin/Documents/PersonalProjects/bittensor/analytics_framework/conversion_subnet/utils/log.py"}, "function": "info", "level": {"icon": "ℹ️", "name": "INFO", "no": 20}, "line": 112, "message": "Initialized binary classification miner with model: Sequential(\n  (0): Linear(in_features=40, out_features=64, bias=True)\n  (1): ReLU()\n  (2): Linear(in_features=64, out_features=32, bias=True)\n  (3): ReLU()\n  (4): Linear(in_features=32, out_features=1, bias=True)\n  (5): Sigmoid()\n)", "module": "log", "name": "conversion_subnet.utils.log", "process": {"id": 30477, "name": "MainProcess"}, "thread": {"id": 8481721472, "name": "MainThread"}, "time": {"repr": "2025-05-03 15:54:22.128471+05:30", "timestamp": 1746267862.128471}}}
{"text": "2025-05-03 15:54:22.132 | INFO     | conversion_subnet.utils.log:info:112 - Initialized binary classification miner with model: Sequential(\n  (0): Linear(in_features=40, out_features=32, bias=True)\n  (1): ReLU()\n  (2): Linear(in_features=32, out_features=16, bias=True)\n  (3): ReLU()\n  (4): Linear(in_features=16, out_features=1, bias=True)\n  (5): Sigmoid()\n)\n", "record": {"elapsed": {"repr": "0:00:00.641444", "seconds": 0.641444}, "exception": null, "extra": {}, "file": {"name": "log.py", "path": "/Users/admin/Documents/PersonalProjects/bittensor/analytics_framework/conversion_subnet/utils/log.py"}, "function": "info", "level": {"icon": "ℹ️", "name": "INFO", "no": 20}, "line": 112, "message": "Initialized binary classification miner with model: Sequential(\n  (0): Linear(in_features=40, out_features=32, bias=True)\n  (1): ReLU()\n  (2): Linear(in_features=32, out_features=16, bias=True)\n  (3): ReLU()\n  (4): Linear(in_features=16, out_features=1, bias=True)\n  (5): Sigmoid()\n)", "module": "log", "name": "conversion_subnet.utils.log", "process": {"id": 30477, "name": "MainProcess"}, "thread": {"id": 8481721472, "name": "MainThread"}, "time": {"repr": "2025-05-03 15:54:22.132908+05:30", "timestamp": 1746267862.132908}}}
{"text": "2025-05-03 15:54:22.137 | INFO     | conversion_subnet.utils.log:info:112 - Initialized binary classification miner with model: Sequential(\n  (0): Linear(in_features=40, out_features=64, bias=True)\n  (1): ReLU()\n  (2): Linear(in_features=64, out_features=32, bias=True)\n  (3): ReLU()\n  (4): Linear(in_features=32, out_features=1, bias=True)\n  (5): Sigmoid()\n)\n", "record": {"elapsed": {"repr": "0:00:00.645721", "seconds": 0.645721}, "exception": null, "extra": {}, "file": {"name": "log.py", "path": "/Users/admin/Documents/PersonalProjects/bittensor/analytics_framework/conversion_subnet/utils/log.py"}, "function": "info", "level": {"icon": "ℹ️", "name": "INFO", "no": 20}, "line": 112, "message": "Initialized binary classification miner with model: Sequential(\n  (0): Linear(in_features=40, out_features=64, bias=True)\n  (1): ReLU()\n  (2): Linear(in_features=64, out_features=32, bias=True)\n  (3): ReLU()\n  (4): Linear(in_features=32, out_features=1, bias=True)\n  (5): Sigmoid()\n)", "module": "log", "name": "conversion_subnet.utils.log", "process": {"id": 30477, "name": "MainProcess"}, "thread": {"id": 8481721472, "name": "MainThread"}, "time": {"repr": "2025-05-03 15:54:22.137185+05:30", "timestamp": 1746267862.137185}}}
{"text": "2025-05-03 15:54:22.142 | INFO     | conversion_subnet.utils.log:info:112 - Initialized binary classification miner with model: Sequential(\n  (0): Linear(in_features=40, out_features=64, bias=True)\n  (1): ReLU()\n  (2): Linear(in_features=64, out_features=32, bias=True)\n  (3): ReLU()\n  (4): Linear(in_features=32, out_features=1, bias=True)\n  (5): Sigmoid()\n)\n", "record": {"elapsed": {"repr": "0:00:00.650709", "seconds": 0.650709}, "exception": null, "extra": {}, "file": {"name": "log.py", "path": "/Users/admin/Documents/PersonalProjects/bittensor/analytics_framework/conversion_subnet/utils/log.py"}, "function": "info", "level": {"icon": "ℹ️", "name": "INFO", "no": 20}, "line": 112, "message": "Initialized binary classification miner with model: Sequential(\n  (0): Linear(in_features=40, out_features=64, bias=True)\n  (1): ReLU()\n  (2): Linear(in_features=64, out_features=32, bias=True)\n  (3): ReLU()\n  (4): Linear(in_features=32, out_features=1, bias=True)\n  (5): Sigmoid()\n)", "module": "log", "name": "conversion_subnet.utils.log", "process": {"id": 30477, "name": "MainProcess"}, "thread": {"id": 8481721472, "name": "MainThread"}, "time": {"repr": "2025-05-03 15:54:22.142173+05:30", "timestamp": 1746267862.142173}}}
{"text": "2025-05-03 15:54:22.147 | INFO     | conversion_subnet.utils.log:info:112 - Initialized binary classification miner with model: Sequential(\n  (0): Linear(in_features=40, out_features=64, bias=True)\n  (1): ReLU()\n  (2): Linear(in_features=64, out_features=32, bias=True)\n  (3): ReLU()\n  (4): Linear(in_features=32, out_features=1, bias=True)\n  (5): Sigmoid()\n)\n", "record": {"elapsed": {"repr": "0:00:00.655981", "seconds": 0.655981}, "exception": null, "extra": {}, "file": {"name": "log.py", "path": "/Users/admin/Documents/PersonalProjects/bittensor/analytics_framework/conversion_subnet/utils/log.py"}, "function": "info", "level": {"icon": "ℹ️", "name": "INFO", "no": 20}, "line": 112, "message": "Initialized binary classification miner with model: Sequential(\n  (0): Linear(in_features=40, out_features=64, bias=True)\n  (1): ReLU()\n  (2): Linear(in_features=64, out_features=32, bias=True)\n  (3): ReLU()\n  (4): Linear(in_features=32, out_features=1, bias=True)\n  (5): Sigmoid()\n)", "module": "log", "name": "conversion_subnet.utils.log", "process": {"id": 30477, "name": "MainProcess"}, "thread": {"id": 8481721472, "name": "MainThread"}, "time": {"repr": "2025-05-03 15:54:22.147445+05:30", "timestamp": 1746267862.147445}}}
{"text": "2025-05-03 15:54:22.148 | ERROR    | conversion_subnet.utils.log:error:130 - Err
…
PersonalProjects/bittensor/analytics_framework/conversion_subnet/utils/log.py"}, "function": "info", "level": {"icon": "ℹ️", "name": "INFO", "no": 20}, "line": 112, "message": "Starting test session", "module": "log", "name": "conversion_subnet.utils.log", "process": {"id": 31496, "name": "MainProcess"}, "thread": {"id": 8481721472, "name": "MainThread"}, "time": {"repr": "2025-05-03 15:59:10.981526+05:30", "timestamp": 1746268150.981526}}}
{"text": "2025-05-03 15:59:10.993 | INFO     | conversion_subnet.utils.log:info:112 - Initialized binary classification miner with model: Sequential(\n  (0): Linear(in_features=40, out_features=64, bias=True)\n  (1): ReLU()\n  (2): Linear(in_features=64, out_features=32, bias=True)\n  (3): ReLU()\n  (4): Linear(in_features=32, out_features=1, bias=True)\n  (5): Sigmoid()\n)\n", "record": {"elapsed": {"repr": "0:00:00.552489", "seconds": 0.552489}, "exception": null, "extra": {}, "file": {"name": "log.py", "path": "/Users/admin/Documents/PersonalProjects/bittensor/analytics_framework/conversion_subnet/utils/log.py"}, "function": "info", "level": {"icon": "ℹ️", "name": "INFO", "no": 20}, "line": 112, "message": "Initialized binary classification miner with model: Sequential(\n  (0): Linear(in_features=40, out_features=64, bias=True)\n  (1): ReLU()\n  (2): Linear(in_features=64, out_features=32, bias=True)\n  (3): ReLU()\n  (4): Linear(in_features=32, out_features=1, bias=True)\n  (5): Sigmoid()\n)", "module": "log", "name": "conversion_subnet.utils.log", "process": {"id": 31496, "name": "MainProcess"}, "thread": {"id": 8481721472, "name": "MainThread"}, "time": {"repr": "2025-05-03 15:59:10.993706+05:30", "timestamp": 1746268150.993706}}}
{"text": "2025-05-03 15:59:11.010 | INFO     | conversion_subnet.utils.log:info:112 - Initialized binary classification miner with model: Sequential(\n  (0): Linear(in_features=40, out_features=64, bias=True)\n  (1): ReLU()\n  (2): Linear(in_features=64, out_features=32, bias=True)\n  (3): ReLU()\n  (4): Linear(in_features=32, out_features=1, bias=True)\n  (5): Sigmoid()\n)\n", "record": {"elapsed": {"repr": "0:00:00.568850", "seconds": 0.56885}, "exception": null, "extra": {}, "file": {"name": "log.py", "path": "/Users/admin/Documents/PersonalProjects/bittensor/analytics_framework/conversion_subnet/utils/log.py"}, "function": "info", "level": {"icon": "ℹ️", "name": "INFO", "no": 20}, "line": 112, "message": "Initialized binary classification miner with model: Sequential(\n  (0): Linear(in_features=40, out_features=64, bias=True)\n  (1): ReLU()\n  (2): Linear(in_features=64, out_features=32, bias=True)\n  (3): ReLU()\n  (4): Linear(in_features=32, out_features=1, bias=True)\n  (5): Sigmoid()\n)", "module": "log", "name": "conversion_subnet.utils.log", "process": {"id": 31496, "name": "MainProcess"}, "thread": {"id": 8481721472, "name": "MainThread"}, "time": {"repr": "2025-05-03 15:59:11.010067+05:30", "timestamp": 1746268151.010067}}}
{"text": "2025-05-03 15:59:11.016 | INFO     | conversion_subnet.utils.log:info:112 - Initialized binary classification miner with model: Sequential(\n  (0): Linear(in_features=40, out_features=64, bias=True)\n  (1): ReLU()\n  (2): Linear(in_features=64, out_features=32, bias=True)\n  (3): ReLU()\n  (4): Linear(in_features=32, out_features=1, bias=True)\n  (5): Sigmoid()\n)\n", "record": {"elapsed": {"repr": "0:00:00.575123", "seconds": 0.575123}, "exception": null, "extra": {}, "file": {"name": "log.py", "path": "/Users/admin/Documents/PersonalProjects/bittensor/analytics_framework/conversion_subnet/utils/log.py"}, "function": "info", "level": {"icon": "ℹ️", "name": "INFO", "no": 20}, "line": 112, "message": "Initialized binary classification miner with model: Sequential(\n  (0): Linear(in_features=40, out_features=64, bias=True)\n  (1): ReLU()\n  (2): Linear(in_features=64, out_features=32, bias=True)\n  (3): ReLU()\n  (4): Linear(in_features=32, out_features=1, bias=True)\n  (5): Sigmoid()\n)", "module": "log", "name": "conversion_subnet.utils.log", "process": {"id": 31496, "name": "MainProcess"}, "thread": {"id": 8481721472, "name": "MainThread"}, "time": {"repr": "2025-05-03 15:59:11.016340+05:30", "timestamp": 1746268151.01634}}}
{"text": "2025-05-03 15:59:11.021 | INFO     | conversion_subnet.utils.log:info:112 - Initialized binary classification miner with model: Sequential(\n  (0): Linear(in_features=40, out_features=64, bias=True)\n  (1): ReLU()\n  (2): Linear(in_features=64, out_features=32, bias=True)\n  (3): ReLU()\n  (4): Linear(in_features=32, out_features=1, bias=True)\n  (5): Sigmoid()\n)\n", "record": {"elapsed": {"repr": "0:00:00.580454", "seconds": 0.580454}, "exception": null, "extra": {}, "file": {"name": "log.py", "path": "/Users/admin/Documents/PersonalProjects/bittensor/analytics_framework/conversion_subnet/utils/log.py"}, "function": "info", "level": {"icon": "ℹ️", "name": "INFO", "no": 20}, "line": 112, "message": "Initialized binary classification miner with model: Sequential(\n  (0): Linear(in_features=40, out_features=64, bias=True)\n  (1): ReLU()\n  (2): Linear(in_features=64, out_features=32, bias=True)\n  (3): ReLU()\n  (4): Linear(in_features=32, out_features=1, bias=True)\n  (5): Sigmoid()\n)", "module": "log", "name": "conversion_subnet.utils.log", "process": {"id": 31496, "name": "MainProcess"}, "thread": {"id": 8481721472, "name": "MainThread"}, "time": {"repr": "2025-05-03 15:59:11.021671+05:30", "timestamp": 1746268151.021671}}}
{"text": "2025-05-03 15:59:11.025 | INFO     | conversion_subnet.utils.log:info:112 - Initialized binary classification miner with model: Sequential(\n  (0): Linear(in_features=40, out_features=32, bias=True)\n  (1): ReLU()\n  (2): Linear(in_features=32, out_features=16, bias=True)\n  (3): ReLU()\n  (4): Linear(in_features=16, out_features=1, bias=True)\n  (5): Sigmoid()\n)\n", "record": {"elapsed": {"repr": "0:00:00.584382", "seconds": 0.584382}, "exception": null, "extra": {}, "file": {"name": "log.py", "path": "/Users/admin/Documents/PersonalProjects/bittensor/analytics_framework/conversion_subnet/utils/log.py"}, "function": "info", "level": {"icon": "ℹ️", "name": "INFO", "no": 20}, "line": 112, "message": "Initialized binary classification miner with model: Sequential(\n  (0): Linear(in_features=40, out_features=32, bias=True)\n  (1): ReLU()\n  (2): Linear(in_features=32, out_features=16, bias=True)\n  (3): ReLU()\n  (4): Linear(in_features=16, out_features=1, bias=True)\n  (5): Sigmoid()\n)", "module": "log", "name": "conversion_subnet.utils.log", "process": {"id": 31496, "name": "MainProcess"}, "thread": {"id": 8481721472, "name": "MainThread"}, "time": {"repr": "2025-05-03 15:59:11.025599+05:30", "timestamp": 1746268151.025599}}}
{"text": "2025-05-03 15:59:11.030 | INFO     | conversion_subnet.utils.log:info:112 - Initialized binary classification miner with model: Sequential(\n  (0): Linear(in_features=40, out_features=64, bias=True)\n  (1): ReLU()\n  (2): Linear(in_features=64, out_features=32, bias=True)\n  (3): ReLU()\n  (4): Linear(in_features=32, out_features=1, bias=True)\n  (5): Sigmoid()\n)\n", "record": {"elapsed": {"repr": "0:00:00.588953", "seconds": 0.588953}, "exception": null, "extra": {}, "file": {"name": "log.py", "path": "/Users/admin/Documents/PersonalProjects/bittensor/analytics_framework/conversion_subnet/utils/log.py"}, "function": "info", "level": {"icon": "ℹ️", "name": "INFO", "no": 20}, "line": 112, "message": "Initialized binary classification miner with model: Sequential(\n  (0): Linear(in_features=40, out_features=64, bias=True)\n  (1): ReLU()\n  (2): Linear(in_features=64, out_features=32, bias=True)\n  (3): ReLU()\n  (4): Linear(in_features=32, out_features=1, bias=True)\n  (5): Sigmoid()\n)", "module": "log", "name": "conversion_subnet.utils.log", "process": {"id": 31496, "name": "MainProcess"}, "thread": {"id": 8481721472, "name": "MainThread"}, "time": {"repr": "2025-05-03 15:59:11.030170+05:30", "timestamp": 1746268151.03017}}}
{"text": "2025-05-03 15:59:11.034 | INFO     | conversion_subnet.utils.log:info:112 - Initialized binary classification miner with model: Sequential(\n  (0): Linear(in_features=40, out_features=64, bias=True)\n  (1): ReLU()\n  (2): Linear(in_features=64, out_features=32, bias=True)\n  (3): ReLU()\n  (4): Linear(in_features=32, out_features=1, bias=True)\n  (5): Sigmoid()\n)\n", "record": {"elapsed": {"repr": "0:00:00.593620", "seconds": 0.59362}, "exception": null, "extra": {}, "file": {"name": "log.py", "path": "/Users/admin/Documents/PersonalProjects/bittensor/analytics_framework/conversion_subnet/utils/log.py"}, "function": "info", "level": {"icon": "ℹ️", "name": "INFO", "no": 20}, "line": 112, "message": "Initialized binary classification miner with model: Sequential(\n  (0): Linear(in_features=40, out_features=64, bias=True)\n  (1): ReLU()\n  (2): Linear(in_features=64, out_features=32, bias=True)\n  (3): ReLU()\n  (4): Linear(in_features=32, out_features=1, bias=True)\n  (5): Sigmoid()\n)", "module": "log", "name": "conversion_subnet.utils.log", "process": {"id": 31496, "name": "MainProcess"}, "thread": {"id": 8481721472, "name": "MainThread"}, "time": {"repr": "2025-05-03 15:59:11.034837+05:30", "timestamp": 1746268151.034837}}}
{"text": "2025-05-03 15:59:11.039 | INFO     | conversion_subnet.utils.log:info:112 - Initialized binary classification miner with model: Sequential(\n  (0): Linear(in_features=40, out_features=64, bias=True)\n  (1): ReLU()\n  (2): Linear(in_features=64, out_features=32, bias=True)\n  (3): ReLU()\n  (4): Linear(in_features=32, out_features=1, bias=True)\n  (5): Sigmoid()\n)\n", "record": {"elapsed": {"repr": "0:00:00.598374", "seconds": 0.598374}, "exception": null, "extra": {}, "file": {"name": "log.py", "path": "/Users/admin/Documents/PersonalProjects/bittensor/analytics_framework/conversion_subnet/utils/log.py"}, "function": "info", "level": {"icon": "ℹ️", "name": "INFO", "no": 20}, "line": 112, "message": "Initialized binary classification miner with model: Sequential(\n  (0): Linear(in_features=40, out_features=64, bias=True)\n  (1): ReLU()\n  (2): Linear(in_features=64, out_features=32, bias=True)\n  (3): ReLU()\n  (4): Linear(in_features=32, out_features=1, bias=True)\n  (5): Sigmoid()\n)", "module": "log", "name": "conversion_subnet.utils.log", "process": {"id": 31496, "name": "MainProcess"}, "thread": {"id": 8481721472, "name": "MainThread"}, "time": {"repr": "2025-05-03 15:59:11.039591+05:30", "timestamp": 1746268151.039591}}}
{"text": "2025-05-03 15:59:11.048 | ERROR    | conversion_subnet.utils.log:error:130 - Err
…
