{
  "logs": [
    {
      "timestamp": "2025-05-03T15:49:25.128294",
      "level": "INFO",
      "message": "Starting test session",
      "metadata": {
        "test_dir": "/Users/admin/Documents/PersonalProjects/bittensor/analytics_framework/test-results"
      }
    },
    {
      "timestamp": "2025-05-03T15:49:25.137601",
      "level": "INFO",
      "message": "Initialized binary classification miner with model: Sequential(\n  (0): Linear(in_features=40, out_features=64, bias=True)\n  (1): ReLU()\n  (2): Linear(in_features=64, out_features=32, bias=True)\n  (3): ReLU()\n  (4): Linear(in_features=32, out_features=1, bias=True)\n  (5): Sigmoid()\n)",
      "metadata": {}
    },
    {
      "timestamp": "2025-05-03T15:49:25.141884",
      "level": "ERROR",
      "message": "Error in forward: too many dimensions 'str'",
      "metadata": {}
    },
    {
      "timestamp": "2025-05-03T15:49:25.226942",
      "level": "INFO",
      "message": "Initialized binary classification miner with model: Sequential(\n  (0): Linear(in_features=40, out_features=64, bias=True)\n  (1): ReLU()\n  (2): Linear(in_features=64, out_features=32, bias=True)\n  (3): ReLU()\n  (4): Linear(in_features=32, out_features=1, bias=True)\n  (5): Sigmoid()\n)",
      "metadata": {}
    },
    {
      "timestamp": "2025-05-03T15:49:25.228840",
      "level": "ERROR",
      "message": "Error in forward: too many dimensions 'str'",
      "metadata": {}
    },
    {
      "timestamp": "2025-05-03T15:49:25.237369",
      "level": "INFO",
      "message": "Initialized binary classification miner with model: Sequential(\n  (0): Linear(in_features=40, out_features=64, bias=True)\n  (1): ReLU()\n  (2): Linear(in_features=64, out_features=32, bias=True)\n  (3): ReLU()\n  (4): Linear(in_features=32, out_features=1, bias=True)\n  (5): Sigmoid()\n)",
      "metadata": {}
    },
    {
      "timestamp": "2025-05-03T15:49:25.312204",
      "level": "INFO",
      "message": "Initialized binary classification miner with model: Sequential(\n  (0): Linear(in_features=40, out_features=64, bias=True)\n  (1): ReLU()\n  (2): Linear(in_features=64, out_features=32, bias=True)\n  (3): ReLU()\n  (4): Linear(in_features=32, out_features=1, bias=True)\n  (5): Sigmoid()\n)",
      "metadata": {}
    },
    {
      "timestamp": "2025-05-03T15:49:25.316925",
      "level": "INFO",
      "message": "Initialized binary classification miner with model: Sequential(\n  (0): Linear(in_features=40, out_features=32, bias=True)\n  (1): ReLU()\n  (2): Linear(in_features=32, out_features=16, bias=True)\n  (3): ReLU()\n  (4): Linear(in_features=16, out_features=1, bias=True)\n  (5): Sigmoid()\n)",
      "metadata": {}
    },
    {
      "timestamp": "2025-05-03T15:49:25.321423",
      "level": "INFO",
      "message": "Initialized binary classification miner with model: Sequential(\n  (0): Linear(in_features=40, out_features=64, bias=True)\n  (1): ReLU()\n  (2): Linear(in_features=64, out_features=32, bias=True)\n  (3): ReLU()\n  (4): Linear(in_features=32, out_features=1, bias=True)\n  (5): Sigmoid()\n)",
      "metadata": {}
    },
    {
      "timestamp": "2025-05-03T15:49:25.322690",
      "level": "ERROR",
      "message": "Error in forward: too many dimensions 'str'",
      "metadata": {}
    },
    {
      "timestamp": "2025-05-03T15:49:25.330772",
      "level": "INFO",
      "message": "Initialized binary classification miner with model: Sequential(\n  (0): Linear(in_features=40, out_features=64, bias=True)\n  (1): ReLU()\n  (2): Linear(in_features=64, out_features=32, bias=True)\n  (3): ReLU()\n  (4): Linear(in_features=32, out_features=1, bias=True)\n  (5): Sigmoid()\n)",
      "metadata": {}
    },
    {
      "timestamp": "2025-05-03T15:49:25.332033",
      "level": "ERROR",
      "message": "Error in forward: too many dimensions 'str'",
      "metadata": {}
    },
    {
      "timestamp": "2025-05-03T15:49:25.340000",
      "level": "INFO",
      "message": "Initialized binary classification miner with model: Sequential(\n  (0): Linear(in_features=40, out_features=64, bias=True)\n  (1): ReLU()\n  (2): Linear(in_features=64, out_features=32, bias=True)\n  (3): ReLU()\n  (4): Linear(in_features=32, out_features=1, bias=True)\n  (5): Sigmoid()\n)",
      "metadata": {}
    },
    {
      "timestamp": "2025-05-03T15:49:25.341109",
      "level": "ERROR",
      "message": "Error in forward: too many dimensions 'str'",
      "metadata": {}
    },
    {
      "timestamp": "2025-05-03T15:49:25.349137",
      "level": "INFO",
      "message": "Initialized binary classification miner with model: Sequential(\n  (0): Linear(in_features=40, out_features=64, bias=True)\n  (1): ReLU()\n  (2): Linear(in_features=64, out_features=32, bias=True)\n  (3): ReLU()\n  (4): Linear(in_features=32, out_features=1, bias=True)\n  (5): Sigmoid()\n)",
      "metadata": {}
    },
    {
      "timestamp": "2025-05-03T15:49:25.584493",
      "level": "INFO",
      "message": "Saved model checkpoint to /private/var/folders/wg/544yksrd18q2wtz1fyftdm400000gn/T/pytest-of-admin/pytest-3/test_save_model0/checkpoints/test_model.pt",
      "metadata": {}
    },
    {
      "timestamp": "2025-05-03T15:49:25.587265",
…
