{
  "logs": [
    {
      "timestamp": "2025-05-03T15:54:21.902491",
      "level": "INFO",
      "message": "Starting test session",
      "metadata": {
        "test_dir": "/Users/admin/Documents/PersonalProjects/bittensor/analytics_framework/test-results"
      }
    },
    {
      "timestamp": "2025-05-03T15:54:21.907320",
      "level": "INFO",
      "message": "Initialized binary classification miner with model: Sequential(\n  (0): Linear(in_features=40, out_features=64, bias=True)\n  (1): ReLU()\n  (2): Linear(in_features=64, out_features=32, bias=True)\n  (3): ReLU()\n  (4): Linear(in_features=32, out_features=1, bias=True)\n  (5): Sigmoid()\n)",
      "metadata": {}
    },
    {
      "timestamp": "2025-05-03T15:54:21.910553",
      "level": "ERROR",
      "message": "Error in forward: too many dimensions 'str'",
      "metadata": {}
    },
    {
      "timestamp": "2025-05-03T15:54:21.996054",
      "level": "INFO",
      "message": "Initialized binary classification miner with model: Sequential(\n  (0): Linear(in_features=40, out_features=64, bias=True)\n  (1): ReLU()\n  (2): Linear(in_features=64, out_features=32, bias=True)\n  (3): ReLU()\n  (4): Linear(in_features=32, out_features=1, bias=True)\n  (5): Sigmoid()\n)",
      "metadata": {}
    },
    {
      "timestamp": "2025-05-03T15:54:21.998115",
      "level": "ERROR",
      "message": "Error in forward: too many dimensions 'str'",
      "metadata": {}
    },
    {
      "timestamp": "2025-05-03T15:54:22.006960",
      "level": "INFO",
      "message": "Initialized binary classification miner with model: Sequential(\n  (0): Linear(in_features=40, out_features=64, bias=True)\n  (1): ReLU()\n  (2): Linear(in_features=64, out_features=32, bias=True)\n  (3): ReLU()\n  (4): Linear(in_features=32, out_features=1, bias=True)\n  (5): Sigmoid()\n)",
      "metadata": {}
    },
    {
      "timestamp": "2025-05-03T15:54:22.128705",
      "level": "INFO",
      "message": "Initialized binary classification miner with model: Sequential(\n  (0): Linear(in_features=40, out_features=64, bias=True)\n  (1): ReLU()\n  (2): Linear(in_features=64, out_features=32, bias=True)\n  (3): ReLU()\n  (4): Linear(in_features=32, out_features=1, bias=True)\n  (5): Sigmoid()\n)",
      "metadata": {}
    },
    {
      "timestamp": "2025-05-03T15:54:22.133041",
      "level": "INFO",
      "message": "Initialized binary classification miner with model: Sequential(\n  (0): Linear(in_features=40, out_features=32, bias=True)\n  (1): ReLU()\n  (2): Linear(in_features=32, out_features=16, bias=True)\n  (3): ReLU()\n  (4): Linear(in_features=16, out_features=1, bias=True)\n  (5): Sigmoid()\n)",
      "metadata": {}
    },
    {
      "timestamp": "2025-05-03T15:54:22.137331",
      "level": "INFO",
      "message": "Initialized binary classification miner with model: Sequential(\n  (0): Linear(in_features=40, out_features=64, bias=True)\n  (1): ReLU()\n  (2): Linear(in_features=64, out_features=32, bias=True)\n  (3): ReLU()\n  (4): Linear(in_features=32, out_features=1, bias=True)\n  (5): Sigmoid()\n)",
      "metadata": {}
    },
    {
      "timestamp": "2025-05-03T15:54:22.142304",
      "level": "INFO",
      "message": "Initialized binary classification miner with model: Sequential(\n  (0): Linear(in_features=40, out_features=64, bias=True)\n  (1): ReLU()\n  (2): Linear(in_features=64, out_features=32, bias=True)\n  (3): ReLU()\n  (4): Linear(in_features=32, out_features=1, bias=True)\n  (5): Sigmoid()\n)",
      "metadata": {}
    },
    {
      "timestamp": "2025-05-03T15:54:22.147688",
      "level": "INFO",
      "message": "Initialized binary classification miner with model: Sequential(\n  (0): Linear(in_features=40, out_features=64, bias=True)\n  (1): ReLU()\n  (2): Linear(in_features=64, out_features=32, bias=True)\n  (3): ReLU()\n  (4): Linear(in_features=32, out_features=1, bias=True)\n  (5): Sigmoid()\n)",
      "metadata": {}
    },
    {
      "timestamp": "2025-05-03T15:54:22.149214",
      "level": "ERROR",
      "message": "Error in forward: mat1 and mat2 shapes cannot be multiplied (1x0 and 40x16)",
      "metadata": {}
    },
    {
      "timestamp": "2025-05-03T15:54:22.153821",
      "level": "INFO",
      "message": "Initialized binary classification miner with model: Sequential(\n  (0): Linear(in_features=40, out_features=64, bias=True)\n  (1): ReLU()\n  (2): Linear(in_features=64, out_features=32, bias=True)\n  (3): ReLU()\n  (4): Linear(in_features=32, out_features=1, bias=True)\n  (5): Sigmoid()\n)",
      "metadata": {}
    },
    {
      "timestamp": "2025-05-03T15:54:22.320649",
      "level": "INFO",
      "message": "Saved model checkpoint to /private/var/folders/wg/544yksrd18q2wtz1fyftdm400000gn/T/pytest-of-admin/pytest-4/test_save_model0/checkpoints/test_model.pt",
      "metadata": {}
    },
    {
      "timestamp": "2025-05-03T15:54:22.323408",
…
