{
  "logs": [
    {
      "timestamp": "2025-05-03T15:46:58.263336",
      "level": "INFO",
      "message": "Starting test session",
      "metadata": {
        "test_dir": "/Users/admin/Documents/PersonalProjects/bittensor/analytics_framework/test-results"
      }
    },
    {
      "timestamp": "2025-05-03T15:46:58.275093",
      "level": "INFO",
      "message": "Initialized binary classification miner with model: Sequential(\n  (0): Linear(in_features=40, out_features=64, bias=True)\n  (1): ReLU()\n  (2): Linear(in_features=64, out_features=32, bias=True)\n  (3): ReLU()\n  (4): Linear(in_features=32, out_features=1, bias=True)\n  (5): Sigmoid()\n)",
      "metadata": {}
    },
    {
      "timestamp": "2025-05-03T15:46:58.404065",
      "level": "INFO",
      "message": "Initialized binary classification miner with model: Sequential(\n  (0): Linear(in_features=40, out_features=64, bias=True)\n  (1): ReLU()\n  (2): Linear(in_features=64, out_features=32, bias=True)\n  (3): ReLU()\n  (4): Linear(in_features=32, out_features=1, bias=True)\n  (5): Sigmoid()\n)",
      "metadata": {}
    },
    {
      "timestamp": "2025-05-03T15:46:58.453422",
      "level": "INFO",
      "message": "Initialized binary classification miner with model: Sequential(\n  (0): Linear(in_features=40, out_features=64, bias=True)\n  (1): ReLU()\n  (2): Linear(in_features=64, out_features=32, bias=True)\n  (3): ReLU()\n  (4): Linear(in_features=32, out_features=1, bias=True)\n  (5): Sigmoid()\n)",
      "metadata": {}
    },
    {
      "timestamp": "2025-05-03T15:46:58.529567",
      "level": "INFO",
      "message": "Initialized binary classification miner with model: Sequential(\n  (0): Linear(in_features=40, out_features=64, bias=True)\n  (1): ReLU()\n  (2): Linear(in_features=64, out_features=32, bias=True)\n  (3): ReLU()\n  (4): Linear(in_features=32, out_features=1, bias=True)\n  (5): Sigmoid()\n)",
      "metadata": {}
    },
    {
      "timestamp": "2025-05-03T15:46:58.535128",
      "level": "INFO",
      "message": "Initialized binary classification miner with model: Sequential(\n  (0): Linear(in_features=40, out_features=32, bias=True)\n  (1): ReLU()\n  (2): Linear(in_features=32, out_features=16, bias=True)\n  (3): ReLU()\n  (4): Linear(in_features=16, out_features=1, bias=True)\n  (5): Sigmoid()\n)",
      "metadata": {}
    },
    {
      "timestamp": "2025-05-03T15:46:58.539689",
      "level": "INFO",
      "message": "Initialized binary classification miner with model: Sequential(\n  (0): Linear(in_features=40, out_features=64, bias=True)\n  (1): ReLU()\n  (2): Linear(in_features=64, out_features=32, bias=True)\n  (3): ReLU()\n  (4): Linear(in_features=32, out_features=1, bias=True)\n  (5): Sigmoid()\n)",
      "metadata": {}
    },
    {
      "timestamp": "2025-05-03T15:46:58.544363",
      "level": "ERROR",
      "message": "Error in forward: too many dimensions 'str'",
      "metadata": {}
    },
    {
      "timestamp": "2025-05-03T15:46:58.552584",
      "level": "INFO",
      "message": "Initialized binary classification miner with model: Sequential(\n  (0): Linear(in_features=40, out_features=64, bias=True)\n  (1): ReLU()\n  (2): Linear(in_features=64, out_features=32, bias=True)\n  (3): ReLU()\n  (4): Linear(in_features=32, out_features=1, bias=True)\n  (5): Sigmoid()\n)",
      "metadata": {}
    },
    {
      "timestamp": "2025-05-03T15:46:58.553894",
      "level": "ERROR",
      "message": "Error in forward: too many dimensions 'str'",
      "metadata": {}
    },
    {
      "timestamp": "2025-05-03T15:46:58.561615",
      "level": "INFO",
      "message": "Initialized binary classification miner with model: Sequential(\n  (0): Linear(in_features=40, out_features=64, bias=True)\n  (1): ReLU()\n  (2): Linear(in_features=64, out_features=32, bias=True)\n  (3): ReLU()\n  (4): Linear(in_features=32, out_features=1, bias=True)\n  (5): Sigmoid()\n)",
      "metadata": {}
    },
    {
      "timestamp": "2025-05-03T15:46:58.562878",
      "level": "ERROR",
      "message": "Error in forward: too many dimensions 'str'",
      "metadata": {}
    },
    {
      "timestamp": "2025-05-03T15:46:58.567657",
      "level": "INFO",
      "message": "Initialized binary classification miner with model: Sequential(\n  (0): Linear(in_features=40, out_features=64, bias=True)\n  (1): ReLU()\n  (2): Linear(in_features=64, out_features=32, bias=True)\n  (3): ReLU()\n  (4): Linear(in_features=32, out_features=1, bias=True)\n  (5): Sigmoid()\n)",
      "metadata": {}
    },
    {
      "timestamp": "2025-05-03T15:46:58.611436",
      "level": "INFO",
      "message": "Initialized binary classification miner with model: Sequential(\n  (0): Linear(in_features=40, out_features=64, bias=True)\n  (1): ReLU()\n  (2): Linear(in_features=64, out_features=32, bias=True)\n  (3): ReLU()\n  (4): Linear(in_features=32, out_features=1, bias=True)\n  (5): Sigmoid()\n)",
      "metadata": {}
    },
    {
      "timestamp": "2025-05-03T15:46:58.648511",
      "level": "INFO",
      "message": "Epoch 1/1 - train_loss: 0.8496, train_acc: 0.0000, val_loss: 0.8496, val_acc: 0.0000",
      "metadata": {}
    },
    {
      "timestamp": "2025-05-03T15:46:58.661420",
      "level": "INFO",
      "message": "Initialized binary classification miner with model: Sequential(\n  (0): Linear(in_features=40, out_features=64, bias=True)\n  (1): ReLU()\n  (2): Linear(in_features=64, out_features=32, bias=True)\n  (3): ReLU()\n  (4): Linear(in_features=32, out_features=1, bias=True)\n  (5): Sigmoid()\n)",
      "metadata": {}
    },
    {
      "timestamp": "2025-05-03T15:46:58.666211",
      "level": "INFO",
      "message": "Saved model checkpoint to /private/var/folders/wg/544yksrd18q2wtz1fyftdm400000gn/T/pytest-of-admin/pytest-2/test_save_model0/checkpoints/test_model.pt",
      "metadata": {}
    },
    {
      "timestamp": "2025-05-03T15:46:58.676746",
      "level": "INFO",
      "message": "Initialized binary classification miner with model: Sequential(\n  (0): Linear(in_features=40, out_features=64, bias=True)\n  (1): ReLU()\n  (2): Linear(in_features=64, out_features=32, bias=True)\n  (3): ReLU()\n  (4): Linear(in_features=32, out_features=1, bias=True)\n  (5): Sigmoid()\n)",
      "metadata": {}
    },
    {
      "timestamp": "2025-05-03T15:46:58.678435",
      "level": "INFO",
      "message": "Saved model checkpoint to /private/var/folders/wg/544yksrd18q2wtz1fyftdm400000gn/T/pytest-of-admin/pytest-2/test_load_model0/checkpoints/test_model.pt",
      "metadata": {}
    },
    {
      "timestamp": "2025-05-03T15:46:58.680784",
…
