{
  "logs": [
    {
      "timestamp": "2025-05-03T16:00:27.073807",
      "level": "INFO",
      "message": "Starting test session",
      "metadata": {
        "test_dir": "/Users/admin/Documents/PersonalProjects/bittensor/analytics_framework/test-results"
      }
    },
    {
      "timestamp": "2025-05-03T16:00:27.078254",
      "level": "INFO",
      "message": "Initialized binary classification miner with model: Sequential(\n  (0): Linear(in_features=40, out_features=64, bias=True)\n  (1): ReLU()\n  (2): Linear(in_features=64, out_features=32, bias=True)\n  (3): ReLU()\n  (4): Linear(in_features=32, out_features=1, bias=True)\n  (5): Sigmoid()\n)",
      "metadata": {}
    },
    {
      "timestamp": "2025-05-03T16:00:27.094872",
      "level": "INFO",
      "message": "Initialized binary classification miner with model: Sequential(\n  (0): Linear(in_features=40, out_features=64, bias=True)\n  (1): ReLU()\n  (2): Linear(in_features=64, out_features=32, bias=True)\n  (3): ReLU()\n  (4): Linear(in_features=32, out_features=1, bias=True)\n  (5): Sigmoid()\n)",
      "metadata": {}
    },
    {
      "timestamp": "2025-05-03T16:00:27.101522",
      "level": "INFO",
      "message": "Initialized binary classification miner with model: Sequential(\n  (0): Linear(in_features=40, out_features=64, bias=True)\n  (1): ReLU()\n  (2): Linear(in_features=64, out_features=32, bias=True)\n  (3): ReLU()\n  (4): Linear(in_features=32, out_features=1, bias=True)\n  (5): Sigmoid()\n)",
      "metadata": {}
    },
    {
      "timestamp": "2025-05-03T16:00:27.107169",
      "level": "INFO",
      "message": "Initialized binary classification miner with model: Sequential(\n  (0): Linear(in_features=40, out_features=64, bias=True)\n  (1): ReLU()\n  (2): Linear(in_features=64, out_features=32, bias=True)\n  (3): ReLU()\n  (4): Linear(in_features=32, out_features=1, bias=True)\n  (5): Sigmoid()\n)",
      "metadata": {}
    },
    {
      "timestamp": "2025-05-03T16:00:27.111258",
      "level": "INFO",
      "message": "Initialized binary classification miner with model: Sequential(\n  (0): Linear(in_features=40, out_features=32, bias=True)\n  (1): ReLU()\n  (2): Linear(in_features=32, out_features=16, bias=True)\n  (3): ReLU()\n  (4): Linear(in_features=16, out_features=1, bias=True)\n  (5): Sigmoid()\n)",
      "metadata": {}
    },
    {
      "timestamp": "2025-05-03T16:00:27.115610",
      "level": "INFO",
      "message": "Initialized binary classification miner with model: Sequential(\n  (0): Linear(in_features=40, out_features=64, bias=True)\n  (1): ReLU()\n  (2): Linear(in_features=64, out_features=32, bias=True)\n  (3): ReLU()\n  (4): Linear(in_features=32, out_features=1, bias=True)\n  (5): Sigmoid()\n)",
      "metadata": {}
    },
    {
      "timestamp": "2025-05-03T16:00:27.120401",
      "level": "INFO",
      "message": "Initialized binary classification miner with model: Sequential(\n  (0): Linear(in_features=40, out_features=64, bias=True)\n  (1): ReLU()\n  (2): Linear(in_features=64, out_features=32, bias=True)\n  (3): ReLU()\n  (4): Linear(in_features=32, out_features=1, bias=True)\n  (5): Sigmoid()\n)",
      "metadata": {}
    },
    {
      "timestamp": "2025-05-03T16:00:27.126046",
      "level": "INFO",
      "message": "Initialized binary classification miner with model: Sequential(\n  (0): Linear(in_features=40, out_features=64, bias=True)\n  (1): ReLU()\n  (2): Linear(in_features=64, out_features=32, bias=True)\n  (3): ReLU()\n  (4): Linear(in_features=32, out_features=1, bias=True)\n  (5): Sigmoid()\n)",
      "metadata": {}
    },
    {
      "timestamp": "2025-05-03T16:00:27.128341",
      "level": "ERROR",
      "message": "Error in forward: mat1 and mat2 shapes cannot be multiplied (1x0 and 40x16)",
      "metadata": {}
    },
    {
      "timestamp": "2025-05-03T16:00:27.132696",
      "level": "INFO",
      "message": "Initialized binary classification miner with model: Sequential(\n  (0): Linear(in_features=40, out_features=64, bias=True)\n  (1): ReLU()\n  (2): Linear(in_features=64, out_features=32, bias=True)\n  (3): ReLU()\n  (4): Linear(in_features=32, out_features=1, bias=True)\n  (5): Sigmoid()\n)",
      "metadata": {}
    },
    {
      "timestamp": "2025-05-03T16:00:27.207958",
      "level": "INFO",
      "message": "Epoch 1/1 - train_loss: 0.5000, train_acc: 0.2500, val_loss: 0.5000, val_acc: 0.2500",
      "metadata": {}
    },
    {
      "timestamp": "2025-05-03T16:00:27.215047",
      "level": "INFO",
      "message": "Saved model checkpoint to /private/var/folders/wg/544yksrd18q2wtz1fyftdm400000gn/T/pytest-of-admin/pytest-6/test_save_model0/checkpoints/test_model.pt",
…
